server/CocktailMaker/CocktailMaker_main/model_vlad.pt (torch, 480235 bytes, 20 tensors)

cls.0.weight f4 [128, 111]
000000 2f 3f 85 3d 45 fb 78 bd 1a b2 92 bd fe f0 c4 bc
       0.06506192 -0.060786504 -0.071628764 -0.024040695
000010 d8 1f 12 3d 61 a3 84 3d a1 45 1c 3c ee 16 fe 3b
       0.0356749 0.064764746 0.009538085 0.0077541983
000020 9e 3b d5 3d 3b cb 11 bd 9b f3 ea bc 14 12 8d bd
       0.10411762 -0.035594206 -0.028680613 -0.06888214
000030 47 1b 92 bd de f7 2c bb a9 f7 fd 3c b0 91 5a 3b
       -0.07134109 -0.0026392858 0.031001883 0.0033350997
000040 f9 a4 37 3d ba 8c 11 3d 3c 9d ba 3b 85 67 7c 3d
       0.044835065 0.035534598 0.0056950133 0.06162216
000050 18 a5 28 bd f8 b5 32 3d 65 f7 8d bd b3 1a 8a 3d
       -0.04117307 0.04363057 -0.069319524 0.06743374
000060 9a 1b 37 bd 56 39 94 bd 84 b0 9e bd 49 9a 9e bd
       -0.044704057 -0.072374985 -0.077485114 -0.07744271
000070 62 db 64 bd ef d6 1c 3d 92 b3 90 3d b3 bc 61 3c
       -0.055873282 0.038290914 0.070655 0.0137779
000080 a1 3e 36 3d 96 1e 08 3d ba fb 4d bc 2e f3 5b bc
       0.04449332 0.033232294 -0.012572223 -0.013424678
000090 e4 8c 62 bd 5c c2 91 bd b0 d3 0c 3e b0 d5 24 bc
       -0.055310145 -0.07117149 0.13752627 -0.010060713
0000a0 95 92 b1 bc a1 30 b5 3d 51 53 2b bd 11 31 0a 3d
       -0.021676341 0.08847166 -0.041827504 0.0337382
0000b0 33 5c 74 3d 8d de 8c bc 78 60 4e bb 1d 48 96 bd
       0.05965824 -0.017195964 -0.0031490605 -0.07337973
0000c0 e2 e2 e7 bd 3d 5b bb bc 90 a4 5f bd f0 a0 11 3d
       -0.11322571 -0.022870654 -0.0546003 0.035553873
0000d0 d2 ce af 3d d8 e8 83 3d 8e 4c 76 3c 9e 3b a9 3c
       0.0858437 0.06440896 0.0150329005 0.02065831
0000e0 c5 17 42 bd 84 16 97 3d 02 03 55 bd c5 aa 7b 3d
       -0.04738595 0.073773414 -0.05200482 0.061442155
0000f0 73 e1 69 3d 62 93 2c 3c d6 63 12 bd 5f 9a 24 bd
       0.05709977 0.010533186 -0.035739742 -0.040186282
000100 ce 7b 80 bd d7 43 8c 3d 38 7a d0 3d e2 62 ed 3c
       -0.06273614 0.06848877 0.101795614 0.028977815
000110 e6 5c cb bc aa 39 b8 3d 55 96 1b 3c 2e 41 87 bb
       -0.02482457 0.089953735 0.009496291 -0.004127643
000120 57 d7 b9 bd 63 ab c5 bc dc 40 9e b8 71 b8 b9 bd
       -0.09074276 -0.024129575 -7.546108e-05 -0.090683825
000130 b5 c2 8d bd f9 03 89 3c db 6b 50 bd a8 0b a3 3d
       -0.06921903 0.016725527 -0.05088411 0.07961208
000140 c6 d5 a7 bc 47 88 94 3a 5a 77 49 3a ed 01 57 bd
       -0.020487677 0.0011332118 0.0007685326 -0.05249207
000150 81 b2 d8 3d e1 33 17 bd ca 6a 97 3d c2 db 25 bd
       0.10580922 -0.03691471 0.07393415 -0.04049278
000160 92 d7 b8 3c 88 6c c9 bd 6c 37 b2 bd 34 c8 e9 bc
       0.02256373 -0.09835154 -0.08701977 -0.028537847
000170 a3 a9 46 bd 4f b4 90 bd 87 de 27 bd 6c 9d 8f bc
       -0.048501622 -0.07065641 -0.040983703 -0.01753112
000180 e1 10 a8 ba 64 fe a9 bb 87 df 87 bd 99 fb 8d b8
       -0.0012822413 -0.0051877964 -0.06634431 -6.770268e-05
000190 1e d3 15 bd 55 4b 3e bd 13 c7 6e 3d 4a 78 cf 3d
       -0.03657829 -0.04645856 0.05829532 0.10130365
0001a0 52 87 21 3d 85 cb 93 3c 9a 3f 0a bb 15 70 b5 bd
       0.039435692 0.018041382 -0.0021095038 -0.088592686
0001b0 e3 fa 10 bd f1 06 18 3d 6d 12 1b 3d 3b be 08 3c
       -0.035395514 0.037115995 0.03785937 0.008346136
0001c0 7a 47 f1 bc c0 4e 1d 3d 63 7e 90 3d 93 c5 0e bd
       -0.029453028 0.03840518 0.07055356 -0.03485639
0001d0 aa 1c af bd 54 c9 04 3d 62 d1 13 3d 3f 79 91 bd
       -0.08550389 0.032418564 0.036088355 -0.07103204
0001e0 65 2e 8a bd f1 10 0b bc 18 fe 32 3d be f6 e4 3c
       -0.0674713 -0.008487926 0.043699354 0.027949687
0001f0 39 38 88 3c 66 5a 90 bc b8 50 77 bc 2b 74 90 bc
       0.016628372 -0.01762123 -0.015094928 -0.017633518
000200 83 a9 84 bc 36 7e 9f bb c9 a9 a5 3d be 9b be 3d
       -0.01619411 -0.0048673404 0.080890246 0.09307049
000210 df bd f9 3c 9e 38 48 bd 8d bb 9c 3c aa e3 09 3d
       0.030486045 -0.04888212 0.0191324 0.033664383
000220 ec 50 22 3c 82 82 86 3c fe 7d 58 bd 03 50 b2 3c
       0.009906989 0.016419653 -0.05285453 0.021766668
000230 71 83 3e 3d fa a3 22 bd 4b ae b1 3d 0d 18 3a 3d
       0.04651207 -0.03970716 0.08675822 0.045433093
000240 8b af c1 bd 30 98 e6 3b 81 55 81 bd 91 f7 b3 bd
       -0.0945731 0.007037185 -0.06315137 -0.08787454
000250 8b 9f b2 3c e0 ae 87 3d f9 6c e8 bc b0 d3 58 3d
       0.021804592 0.06625152 -0.028372275 0.052936256
000260 b3 95 16 3d c3 bb 01 3c 24 c8 66 bd 0a 86 37 bd
       0.036763858 0.007918301 -0.056343213 -0.044805564
000270 66 c2 89 3c db d6 21 3d 6c 83 a8 bd fe 7b 06 bd
       0.01681633 0.039511543 -0.08228192 -0.032833092
000280 9a 5a b3 bc 23 f3 b5 ba cd 62 52 bd 49 39 96 bc
       -0.021893788 -0.0013881664 -0.051363755 -0.018337863
000290 66 08 32 bd 99 06 f9 3c 6b 01 c6 3b 9c 80 73 3d
       -0.04346504 0.030398654 0.0060426495 0.059448823
0002a0 c4 32 2b 3b 1f 24 ee bc 28 63 31 bd 54 7b c7 3a
       0.0026122788 -0.029069958 -0.043307453 0.001521925
0002b0 97 d3 80 3c bd 19 75 bd 2d c0 a6 bd ed 71 96 3d
       0.015725894 -0.059839 -0.08142123 0.07345948
0002c0 31 34 6f bd 6d 6f 98 bd 57 ab 8b 3d c9 5f 8e 3d
       -0.058399383 -0.07443128 0.0681979 0.06951863
0002d0 1f 7e bd 3d 78 2e b5 3d 7d d3 1f 3d 31 a7 85 bc
       0.09252571 0.08846754 0.03902005 -0.016315075
0002e0 ea b1 81 bb 47 09 02 bd 43 b9 26 bc 91 62 a8 bd
       -0.0039579766 -0.03174713 -0.010176006 -0.08221925
0002f0 bf 89 4f 3c e7 f1 68 3d 28 fa f9 bc 29 0f 96 3c
       0.012667119 0.05687132 -0.030514792 0.018317776
000300 c8 76 d6 3b b5 4a 84 bd ce 4b 8e 3d bc ad 9e 3c
       0.0065449215 -0.06459562 0.06948052 0.019369952
000310 fd 8b a8 bd bd 9a 36 3c 37 ed 26 3d 87 34 0a bd
       -0.08229826 0.011145291 0.04075357 -0.0337415
000320 88 21 7b bd 55 51 d1 3d 3e 69 56 bc 46 75 60 3d
       -0.061311275 0.10220591 -0.013086615 0.05479934
000330 9c a2 d9 bd 86 90 87 3d 3e a3 79 3c 87 49 13 bc
       -0.106267184 0.066193625 0.015236674 -0.008989698
000340 b0 e5 8a 3d ca 60 32 bd 28 46 66 3d 16 7b ef bc
       0.06782091 -0.043549336 0.05621925 -0.029233497
000350 1e 18 e8 3c bd 76 bb 3b 20 39 47 3d 77 10 b6 bd
       0.028331812 0.005720942 0.048638463 -0.08889859
000360 0e ae 8d 3d 23 27 94 bd b2 3d 8a bd 6e 77 65 bc
       0.06917964 -0.07234027 -0.06750049 -0.014005525
000370 68 8b dd bd bf 8e 49 3d 7d 58 92 3d ab 08 8f bc
       -0.10817605 0.0492084 0.07145784 -0.017460188
000380 88 5d 60 3d 0b a7 66 3d 1d 1e 0e 3e aa b2 fd 3c
       0.0547767 0.05631165 0.13878675 0.030968983
000390 03 ac a6 bd 21 23 09 bc 8d 72 22 3d 4f 73 64 3d
       -0.081382774 -0.008370192 0.039660025 0.05577403
0003a0 4a 25 23 3d e4 f9 20 3d 1e 01 6f 3d 10 cd 8b 3d
       0.039830483 0.039300814 0.058350675 0.06826222
0003b0 59 22 aa bd 12 1b 88 3d 21 0b 97 3d e8 18 cd bc
       -0.083073325 0.06645788 0.073751695 -0.02503629
0003c0 a6 da a3 bc 76 f2 3f 3c bb 6f c6 3c 18 b5 8e bd
       -0.02000172 0.011715522 0.0242232 -0.06968135
0003d0 67 55 ab 3d 4e 55 b6 bd cd 30 3f bd e2 5a 1f be
       0.083658986 -0.08902989 -0.0466774 -0.15562013
0003e0 65 ea 21 3d 99 ca 1d 3d d5 db b5 bc 94 31 fc bc
       0.039530177 0.03852329 -0.02219955 -0.03078536
0003f0 ae c1 86 bc a2 3e ba 3d d9 fe 77 3c a4 3c b5 3d
       -0.016449776 0.090939775 0.015136444 0.08849457

cls.0.bias f4 [128]
000000 01 2f 40 3c bd bc 8b bc 48 b7 85 3d 71 39 8b 3d
       0.011729957 -0.01705777 0.06529099 0.067980655
000010 63 50 02 3d 56 3e 47 3d 10 60 b7 3c 6e 4e 18 3c
       0.031814944 0.048643433 0.022384673 0.009296043
000020 be 9f a4 bd 63 b8 82 3c 08 74 ee bc eb 05 a1 bd
       -0.08038281 0.015957063 -0.029108062 -0.07862457
000030 b4 6c 78 bd 52 c5 98 bd 00 30 75 3d 22 73 a1 bc
       -0.060650542 -0.07459511 0.05986023 -0.01970822
000040 95 da b7 bd 05 a0 53 3d 5e f5 c7 3a 43 1c 43 bd
       -0.08977238 0.05166628 0.001525562 -0.047634374
000050 8a 38 06 3c ca 68 85 3d b6 a6 31 bb 80 7f aa 3c
       0.008192191 0.065141276 -0.0027107424 0.02081275
000060 f8 a6 50 3d 14 e6 5c 3d 24 0a bd 3d 8b 33 c4 3d
       0.050940484 0.053930357 0.0923045 0.095801435
000070 98 3d 57 bc 93 2b 0c 3c c4 87 8d 3d 50 48 4b bd
       -0.013137244 0.008555311 0.06910661 -0.04962951
000080 98 eb 8f bd e5 4e 51 bc 7f 96 90 3a 83 b6 2d bd
       -0.07027358 -0.012775158 0.001103118 -0.042410385
000090 c3 86 51 3c 46 91 bc bd 89 a5 87 bd be 5f 6a bd
       0.012788477 -0.09207396 -0.0662337 -0.057220213
0000a0 a0 96 82 bd 82 af 61 3d b0 e5 57 bd fd 65 79 bd
       -0.06376386 0.055099018 -0.05270928 -0.06088828
0000b0 4b 2b 71 3d db 04 85 3d 04 af 87 3d 4c 4a 32 bd
       0.058879178 0.06495067 0.066251785 -0.043527886
0000c0 74 4a 60 3d f1 49 a5 3d 01 df 7d 3d 52 3a 46 3c
       0.054758504 0.08070744 0.06198025 0.012098866
0000d0 d8 22 aa bd 5a 42 05 3c 55 9a 52 3c 24 48 67 3d
       -0.08307427 0.008133495 0.012854178 0.056465283
0000e0 18 27 90 bd c5 f9 08 3d 56 4e 1d 3d 90 ab 97 bd
       -0.070387065 0.033441324 0.038404785 -0.0740577
0000f0 40 e8 97 3c 8b 94 f3 bc 0a 9c 37 bd 75 5f 9a bd
       0.018543363 -0.029733917 -0.044826545 -0.07537738
000100 a7 f5 5a 3d b5 e4 2a bd 69 6b b4 bc b7 69 8a bd
       0.05345693 -0.04172202 -0.022023873 -0.06758445
000110 cc e8 b1 bd 37 7e b5 3d 74 ed 74 bd 40 23 a9 bd
       -0.086869806 0.08861964 -0.059796765 -0.082586765
000120 6f 8a 1a bb 6c af 5e 3d 30 b9 54 bb a1 82 91 3b
       -0.0023581048 0.054366514 -0.0032459013 0.004440621
000130 aa 94 a2 bc 43 f1 54 bd d5 75 fa 3c 45 31 65 bd
       -0.01984628 -0.051987898 0.030573765 -0.05595519
000140 57 54 7a 3d 71 a2 58 bc c5 09 a0 3d 40 3c 35 bd
       0.06111559 -0.013222323 0.078143634 -0.044246912
000150 1f ac dc 3c b9 fe 92 3d d6 ea 38 bc 00 f7 37 3d
       0.026937542 0.07177491 -0.011286458 0.044913292
000160 54 85 e6 bc d4 af 64 bd c4 e2 bc bd 0c c5 9d bd
       -0.028139748 -0.055831745 -0.092229396 -0.07703599
000170 14 c8 4e 3d 77 60 df 3c 56 fa 01 3a fa b4 d1 3c
       0.050483778 0.027267678 0.00049582624 0.025598992
000180 ba 75 ca 3d be 18 e7 3d b0 f2 ad bd a5 01 ca bd
       0.09885736 0.11284016 -0.084935546 -0.09863595
000190 ef ab 00 3d 2a 32 30 bd 28 56 3b bc df 47 2b bd
       0.03141397 -0.04301659 -0.0114341155 -0.04181659
0001a0 b2 65 5a 3d fd ef 0b be e8 58 24 3c 3d 61 b0 bd
       0.05331964 -0.13665767 0.0100309625 -0.08612297
0001b0 39 d5 80 bb 65 5e 51 bd 00 4f b0 3d 08 fe 0f 3d
       -0.003931668 -0.051115412 0.08608818 0.035154372
0001c0 d1 3d 87 3c 1d f8 b1 bc d7 9f ad 3c 09 9c c7 3c
       0.016508969 -0.021724755 0.021194382 0.024366396
0001d0 14 5c df 3a dc d4 cb bd 92 a1 33 bc cd 92 c9 3c
       0.0017040991 -0.09952709 -0.010963814 0.024606133
0001e0 22 f3 03 bd 45 b1 04 3c 1f 60 41 bc 4f 92 b8 bd
       -0.03221429 0.008098905 -0.011802702 -0.09012281
0001f0 46 5b 0a bd af 90 04 3e e8 0d 66 3d 3b 84 2f bd
       -0.03377845 0.12945817 0.056165606 -0.042850714

cls.2.weight f4 [128]
000000 72 be 72 3f 90 0e 80 3f 72 e5 82 3f 46 64 81 3f
       0.94821846 1.0004444 1.0226271 1.0108726
000010 d7 d7 6c 3f d6 c0 71 3f a6 cb 74 3f 69 27 7d 3f
       0.92516845 0.9443487 0.9562324 0.9888826
000020 8a f5 70 3f ea e7 71 3f eb 2e 7d 3f f6 2d 80 3f
       0.9412466 0.944945 0.98899716 1.0014026
000030 89 e6 80 3f 0d 0f 73 3f 2d a4 7f 3f f0 49 6b 3f
       1.0070354 0.9494484 0.9985989 0.91909695
000040 99 5e 73 3f 14 42 7e 3f 44 d2 79 3f a9 b7 81 3f
       0.9506622 0.9931958 0.97586465 1.0134174
000050 29 53 6f 3f cf cb 7a 3f 83 c1 7b 3f 05 0f 72 3f
       0.9348627 0.9796724 0.9834215 0.9455417
000060 b9 0c 83 3f 3d ba 75 3f 66 0f 7c 3f c4 4a 7b 3f
       1.0238258 0.959873 0.98460996 0.9816096
000070 5b ca 6c 3f d4 7a 73 3f a5 e8 73 3f d6 2e 75 3f
       0.9249627 0.95109296 0.9527686 0.9577459
000080 8c c1 6b 3f 65 ac 72 3f 4d 54 6e 3f 81 90 71 3f
       0.92092204 0.94794303 0.9309738 0.9436112
000090 4d 1b 81 3f 79 0f 72 3f 0e ca 7d 3f 53 58 70 3f
       1.0086457 0.9455486 0.99136436 0.9388477
0000a0 36 0b 7c 3f 5e 5f 78 3f b3 a1 7e 3f 91 8c 79 3f
       0.98454607 0.9702052 0.99465483 0.9748011
0000b0 df 4f 77 3f de 53 7b 3f 35 93 75 3f 95 12 73 3f
       0.9660625 0.98174846 0.95927745 0.9495023
0000c0 05 a6 76 3f 22 f3 6f 3f 71 2e 7b 3f f2 ef 72 3f
       0.96347076 0.93730366 0.9811774 0.9489738
0000d0 e3 25 6c 3f 60 30 78 3f 99 60 74 3f ad 0d 79 3f
       0.9224531 0.96948814 0.95459896 0.9728649
0000e0 aa ff 6e 3f 7a 1a 75 3f 3d b5 6f 3f 44 ef 73 3f
       0.9335886 0.95743525 0.9363592 0.95286965
0000f0 6d 8c 69 3f 82 da 7d 3f ab 06 73 3f 5a d8 71 3f
       0.912299 0.9916154 0.9493205 0.9447075
000100 f1 73 77 3f 75 17 66 3f 06 4d 80 3f 1c af 63 3f
       0.9666129 0.8987954 1.0023506 0.8893907
000110 19 de 73 3f d7 24 75 3f 0f d5 74 3f 1d cd 70 3f
       0.9526077 0.9575934 0.956376 0.9406298
000120 4a eb 7a 3f 2a 08 76 3f ed e0 80 3f 04 35 7d 3f
       0.9801527 0.9610621 1.0068642 0.9890902
000130 35 57 77 3f 0e 5f 76 3f d2 0b 75 3f 7a bd 6f 3f
       0.9661744 0.9623879 0.9572116 0.93648493
000140 94 10 74 3f 62 c9 83 3f 4c 1f 7a 3f 47 9b 66 3f
       0.95337796 1.0295832 0.97704005 0.90080684
000150 8e 74 68 3f c7 cc 71 3f 5a 81 7f 3f b2 f0 78 3f
       0.9080285 0.9445309 0.9980675 0.9724227
000160 88 35 71 3f 6d a1 7a 3f 67 80 71 3f aa a5 75 3f
       0.9422231 0.97902566 0.9433655 0.9595591
000170 41 ab 7a 3f f8 88 78 3f 53 a3 77 3f 2d 79 7e 3f
       0.9791756 0.97084 0.9673359 0.9940365
000180 0a f1 76 3f 73 22 7e 3f 77 31 87 3f 2e 96 79 3f
       0.96461546 0.99271315 1.056197 0.9749478
000190 48 3c 6e 3f f6 97 75 3f cc 8c 73 3f 4b 77 75 3f
       0.9306073 0.95935 0.95136714 0.9588515
0001a0 66 84 73 3f 5e 42 86 3f 09 57 71 3f 24 83 6c 3f
       0.951239 1.0489004 0.9427343 0.92387605
0001b0 26 41 75 3f 28 b9 7d 3f ae 5e 79 3f 45 0d 74 3f
       0.95802534 0.9911065 0.97410095 0.9533275
0001c0 e7 46 75 3f b0 76 6f 3f 34 7e 70 3f 2c 24 73 3f
       0.95811313 0.9354048 0.9394257 0.9497707
0001d0 4e 78 78 3f f9 27 73 3f ed a4 6e 3f 65 43 6a 3f
       0.9705857 0.9498287 0.93220407 0.91509086
0001e0 4d 6c 7b 3f df 7f 77 3f f8 2d 76 3f da 35 7a 3f
       0.9821213 0.9667949 0.9616389 0.9773842
0001f0 e0 09 7a 3f 18 61 74 3f c9 ef 79 3f 87 2d 7a 3f
       0.9767132 0.95460653 0.9763151 0.9772572

cls.2.bias f4 [128]
000000 f0 5e 2c be a7 f7 26 be 72 4b fc 3d 06 d9 2c 3e
       -0.16833091 -0.1630541 0.123190776 0.16879663
000010 d6 f8 17 3d 68 32 23 bc 5a 78 2b be d2 43 12 be
       0.037102543 -0.009960748 -0.16745129 -0.14283684
000020 8a 78 58 bd 7d 57 02 3e cd 1a db bd b4 ae c0 ba
       -0.05284933 0.12728687 -0.10698471 -0.0014700503
000030 8c 6f 4c 3e bb 59 d7 bd ff dd 05 3d c0 fb af bd
       0.19964427 -0.105151616 0.032682415 -0.085929394
000040 66 df 34 bd 51 7f 4d be 51 92 d7 3d be a3 df 3d
       -0.04415836 -0.20068099 0.105259545 0.10919903
000050 3a fa 03 3b 99 93 d5 3d 60 b0 30 be 6b 9c b3 bd
       0.002013816 0.10428543 -0.17254782 -0.08770069
000060 7f ec ba 3d aa 13 fd ba da 21 3c be 7b 2f 22 3e
       0.09127139 -0.0019308229 -0.18372288 0.15838425
000070 8e 59 08 be b5 70 6b bd a0 d2 46 3d 49 35 1c bd
       -0.13315412 -0.057480533 0.04854071 -0.038136754
000080 1f df c9 bc 6e 75 9d bd 8a fa 73 bd a6 5b 24 3e
       -0.024642525 -0.076884136 -0.059565105 0.16050586
000090 73 ba 07 3e dc 12 27 3d de da e1 bd eb 93 99 b9
       0.13254718 0.04078947 -0.11028074 -0.00029292642
0000a0 58 7e 48 3e f6 4b f0 3c af 9b c5 3d 96 79 ca 3d
       0.19579446 0.029333096 0.09648835 0.09886472
0000b0 57 1d 1a be ef ea 1b 3e ec 06 a1 bd 13 ad 04 3d
       -0.15050255 0.15226339 -0.07862648 0.03239162
0000c0 54 7c 97 bd d7 db 10 3e 89 ca fe bd 85 af 95 3c
       -0.073967606 0.14146362 -0.12440974 0.01827217
0000d0 d2 a5 d2 3c d7 e2 8b bd 33 17 02 3e 40 bd 43 bd
       0.025713835 -0.06830376 0.12704162 -0.047787905
0000e0 e5 a0 c9 bd d1 7e 70 3d 22 b3 05 3c 1a 62 14 3a
       -0.09845141 0.05871469 0.008160384 0.000566037
0000f0 f8 c2 1b be 08 5d d5 3d d9 35 0f be 2e 78 13 bd
       -0.15211093 0.10418135 -0.13985385 -0.036003284
000100 7a 18 ea bd bd 23 79 bc d1 3c 01 be 27 be 90 bd
       -0.1143045 -0.015206275 -0.12620856 -0.07067519
000110 31 1f 2e bd fb 61 1d be 4b e6 bf bb 60 b8 45 bc
       -0.042510215 -0.15369408 -0.0058563105 -0.012067884
000120 c3 ec b2 3d 68 69 32 be 7b 02 03 3e 9f 6b 02 be
       0.08736565 -0.17423022 0.12793915 -0.12736367
000130 d4 07 74 bd bb 74 81 bd 82 c8 b3 bd 0a 93 98 3d
       -0.059577778 -0.06321093 -0.08778478 0.074499205
000140 4b da 33 3d f9 45 20 3e bd b3 83 bd 44 a9 66 bd
       0.043909352 0.15651692 -0.06430767 -0.056313768
000150 a4 c5 93 ba 28 e0 cb 3d 23 8c 18 3e 7b e6 48 bd
       -0.0011274111 0.09954864 0.14897208 -0.04904793
000160 dc e2 be bd c2 26 ca bd 16 f7 bd bd 03 45 e2 bd
       -0.09320614 -0.09870674 -0.092756435 -0.11048319
000170 6f 44 84 bd 30 0e df 3d e6 ea e1 bd 14 e9 3d be
       -0.06458365 0.10891378 -0.110311314 -0.18545943
000180 a6 34 2d bc d8 78 2e 3e 63 e6 85 bc 7e cd 23 be
       -0.010571634 0.17038286 -0.016345209 -0.15996358
000190 7c 58 c3 3b 8c 62 c0 3d 44 55 de 3d ee 1f 40 3e
       0.005961476 0.09393796 0.10856107 0.1876218
0001a0 f4 b3 a5 bd 04 02 76 3d 9e 7a 31 3e ad 28 bf bc
       -0.08090964 0.060060516 0.17331931 -0.023334825
0001b0 14 70 f6 3c 44 4f 0b be 46 1c 16 3e 9a 9d 3b be
       0.03008274 -0.13604456 0.14659223 -0.18321839
0001c0 3d 01 6e bd 09 70 d0 3d 1a f4 00 be 39 f9 08 bd
       -0.05810665 0.10177619 -0.12593117 -0.033440802
0001d0 2e 2e a5 bd e2 ac 87 3d 07 3f 8a 3d 79 78 2a 3d
       -0.08065449 0.06624772 0.06750303 0.041618798
0001e0 a1 5c 49 3e 32 c9 42 bd 3d 75 64 3d 21 1a df 3d
       0.19664241 -0.047555156 0.05577587 0.108936556
0001f0 20 7a 4c be 3d 31 b9 3d 6c 65 23 be 42 01 9a bd
       -0.19968462 0.090425946 -0.15956658 -0.07519771

cls.2.running_mean f4 [128]
000000 2d 07 31 3d 2d 70 fb 3c f6 ca 0e 3d 2b 17 b0 3d
       0.043219734 0.030693138 0.034861527 0.08598169
000010 65 57 9f 3d 82 e9 a1 3c 48 6d 9a 3d 57 2d cd 3d
       0.07780341 0.019764666 0.07540375 0.100184135
000020 d2 51 95 3b 98 be b7 3d 4a 2c 30 3a f5 b2 89 3c
       0.004556873 0.089719 0.0006720467 0.016808966
000030 72 32 3d 3d a4 ea 8c 3c d1 a7 09 3e e6 6d 8a 3c
       0.046190687 0.01720173 0.13442923 0.016898107
000040 bc a7 6b 3d 31 c2 45 3d 61 4a 4f 3d 1b 77 27 3d
       0.05753301 0.0482809 0.050608043 0.040885072
000050 82 ce 6c 3d 86 c5 5f 3d 7f 5f f8 3d f9 cf 0a 3d
       0.05781413 0.054631732 0.121275894 0.033889744
000060 b4 44 c6 3d e2 e6 1a 3e 5f ab 0b 3e 3a dd 0f 3e
       0.09681073 0.15127137 0.13639592 0.14049235
000070 dd c1 8e 3d 18 31 d6 3d d8 e3 ec 3d 65 49 b1 3d
       0.0697057 0.10458583 0.11566895 0.08656577
000080 e8 78 3c 3c fa 12 c3 3b 71 f6 0e 3d f3 1f 27 3c
       0.011503436 0.00595319 0.034902994 0.010200488
000090 e5 9c e2 3d 6a 0a 05 3c 94 0d 1e 3b 58 72 76 3c
       0.110650815 0.008120159 0.002411698 0.01504191
0000a0 09 84 a2 3d bd 23 a4 3d cb 11 30 3d 02 39 09 3c
       0.0793534 0.08014629 0.04298572 0.008375408
0000b0 8d be c2 3d 68 e0 6a 3e 82 4e 95 3d e9 fe aa 3c
       0.09509001 0.22937167 0.07290365 0.020873504
0000c0 d7 61 ab 3d 76 75 5e 3d 99 f8 e9 3d ce 40 47 3d
       0.08368271 0.05431124 0.11424369 0.048645787
0000d0 68 76 f2 3c f5 ff ef 3d dd 55 de 3d a4 89 ae 3d
       0.029597476 0.11718742 0.10856221 0.085223466
0000e0 15 2a bc 3b 63 37 97 3d 8d 96 08 3e 0d b6 5f 3d
       0.0057423213 0.07383611 0.1333868 0.054616977
0000f0 cc b7 7c 3d 4b 96 17 3d 2e 7b 32 3d b1 34 bd 3c
       0.06169872 0.037008565 0.043574505 0.023096414
000100 11 e7 d4 3d c7 32 bb 3c df cb 6f 3d a2 97 d9 3c
       0.10395635 0.022851361 0.058544036 0.026561562
000110 1a 4a 06 3d de d4 3a 3d 30 9c 26 3c 15 ea 31 3c
       0.032785513 0.045613162 0.010169074 0.010859032
000120 01 e5 00 3d 87 ec 39 3d 49 fd 58 3d ab ca 71 3c
       0.031468395 0.045391586 0.052975927 0.014757792
000130 a6 d6 51 3d c3 59 30 3c f5 8b 88 3d bd 76 85 3b
       0.051230095 0.010763588 0.0666732 0.0040729926
000140 ea 25 98 3d 6a 3d e6 3d 13 f8 0b 3e d2 a6 9b 3c
       0.074291065 0.112421826 0.13668852 0.019000445
000150 f8 61 e6 3d d8 bb c8 3d d5 0a 9c 3c f9 4a 1a 3d
       0.11249155 0.09801453 0.019048134 0.037669156
000160 5e 94 df 3c fa a4 6a 3d 72 cc 0f 3b b7 fb 09 3d
       0.027292427 0.05728624 0.0021941927 0.03368732
000170 cf f5 11 3d 7f ac 96 3d 2d 1b 0f 3d fa 34 0d 3d
       0.035634812 0.0735712 0.034938026 0.03447435
000180 b2 5f 01 3e 4a cf d2 3d c0 6f b3 39 70 88 0e 3d
       0.12634161 0.102934435 0.000342248 0.034798086
000190 3e fe c9 3c c1 fe 7b 3d 01 d1 bf 3d 76 20 14 3d
       0.024657365 0.06152225 0.09366036 0.03616377
0001a0 20 c9 91 3d 7f 04 67 3b e2 c0 d8 3c f5 5c ef 3b
       0.0711844 0.0035250483 0.026459161 0.0073047825
0001b0 2b 99 46 3d 5f 5f 75 3a bc 4b 35 3d 18 3e e8 3c
       0.048485916 0.00093602197 0.04426168 0.028349921
0001c0 48 79 bb 3d a9 ca a2 3d ce 90 57 3d ea b4 21 3e
       0.09153992 0.079488106 0.05262833 0.1579167
0001d0 00 3f 06 3d fd 2e bc 3b 3c f8 80 3d 59 18 87 3d
       0.032774925 0.005742906 0.06297347 0.06596441
0001e0 ec 52 08 3d b8 93 80 3c d8 57 c8 3d 16 ce ab 3c
       0.033282205 0.015695438 0.0978238 0.020972293
0001f0 7f d8 de 3c 8c ec 30 3e 49 a4 17 3d 38 81 1c 3d
       0.027202843 0.17277735 0.03702191 0.03820917

cls.2.running_var f4 [128]
000000 66 38 a0 3b 33 4b 25 3b 51 71 37 3b b3 cc f2 3b
       0.0048895357 0.0025221824 0.0027991126 0.007409656
000010 21 0d 02 3c a9 a8 dd 3a 6f b7 02 3c 10 7c ea 3b
       0.0079377005 0.0016911227 0.007978304 0.0071559027
000020 55 26 97 39 ec e9 0c 3c 83 79 35 38 e4 52 ae 3a
       0.00028829524 0.008600693 4.326693e-05 0.001329985
000030 1b f5 5c 3b 76 ba c2 3a b5 ae 07 3c 04 24 d6 3a
       0.003371543 0.0014856595 0.0082813995 0.0016337638
000040 ca 87 00 3c 8b 72 c6 3b cf e5 a5 3b 0c 43 7f 3b
       0.007844875 0.006056135 0.0050627957 0.0038949875
000050 97 91 b8 3b 43 73 96 3b 93 36 18 3c a7 50 4f 3b
       0.00563259 0.004591377 0.009290355 0.0031633766
000060 f4 eb 09 3c ac 0d 7a 3c 7f 29 33 3c cc cd 25 3c
       0.008418072 0.015262049 0.010935186 0.010119867
000070 f9 63 ea 3b 0f ff ec 3b 58 38 f2 3b 7f bf d1 3b
       0.007153031 0.007232554 0.0073919706 0.006401002
000080 a7 8b 70 3a e0 98 fb 39 96 bb 58 3b c7 d0 80 3a
       0.0009176083 0.0004798835 0.0033070794 0.0009827845
000090 6b ef 33 3c dc d8 38 3a 32 f7 33 39 8e ee 9e 3a
       0.010982375 0.00070513575 0.00017162858 0.0012125538
0000a0 25 ea 02 3c c3 2b e5 3b 2a 37 6a 3b ba 0e 2e 3a
       0.007990395 0.006993742 0.0035738447 0.00066397677
0000b0 ce 0a 09 3c 4d ba 18 3c d9 8e cd 3b 58 17 f4 3a
       0.008364392 0.009321761 0.0062731323 0.001862268
0000c0 00 58 07 3c 5c 41 af 3b 77 20 17 3c 88 48 ad 3b
       0.008260727 0.0053483676 0.009224049 0.0052881874
0000d0 0e fa 3c 3b a3 83 26 3c 6a d1 12 3c 08 30 f5 3b
       0.0028835568 0.010163221 0.008961061 0.0074825324
0000e0 97 d1 07 3a f7 58 e1 3b 14 9c 0e 3c 83 58 c1 3b
       0.00051810726 0.0068770605 0.008704204 0.005900444
0000f0 ae 49 c4 3b d4 5d 10 3b 59 36 8c 3b 4d 97 11 3b
       0.0059902286 0.0022028582 0.0042789397 0.0022215426
000100 8f 70 15 3c 05 52 03 3b 0c 53 b5 3b 5f 79 0d 3b
       0.009121074 0.00200379 0.0055335816 0.0021587235
000110 7a ba 2c 3b 76 1c b4 3b 61 b7 80 3a 33 d1 6e 3a
       0.0026356266 0.005496557 0.0009820276 0.00091101526
000120 51 8a 39 3b 61 93 ac 3b 21 42 a1 3b cb 40 f7 3a
       0.0028311203 0.0052665924 0.0049212133 0.0018863914
000130 53 9a 8d 3b 37 57 75 3a f9 ab df 3b b8 5c d8 39
       0.0043213754 0.00093590043 0.0068259207 0.0004126781
000140 83 14 0a 3c 9a 1d 12 3c f8 6e 3d 3c 35 e4 d5 3a
       0.008427742 0.00891819 0.011562102 0.0016318621
000150 2a b1 14 3c 5c 17 1e 3c ab a8 d8 3a 86 b1 85 3b
       0.009075442 0.009649124 0.0016529759 0.0040800003
000160 e9 2f 30 3b 5c ab a0 3b 3c 51 35 39 b2 55 54 3b
       0.0026884025 0.00490324 0.00017291767 0.0032399711
000170 3c 21 51 3b 98 19 d1 3b a9 41 7b 3b da c6 96 3b
       0.0031910678 0.006381225 0.0038338697 0.0046013417
000180 73 a5 28 3c 05 5e ee 3b d9 33 07 38 17 15 47 3b
       0.010293352 0.0072743916 3.2234795e-05 0.003037756
000190 e9 72 07 3b c6 f8 9a 3b c2 af fb 3b 43 9d 42 3b
       0.0020667857 0.004729363 0.007680864 0.0029695786
0001a0 89 a7 a9 3b a8 cf 89 39 30 12 4d 3b d2 5c 1d 3a
       0.0051774425 0.00026285392 0.0031291358 0.0006002906
0001b0 1b 3f c2 3b 76 a9 6e 38 dd 56 95 3b 94 07 4f 3b
       0.005927933 5.6901445e-05 0.004557474 0.003159021
0001c0 76 07 0a 3c 20 d2 e4 3b ea 30 95 3b 27 6c 0e 3c
       0.00842463 0.0069830567 0.00455295 0.008692778
0001d0 66 2b 52 3b cd 8b d5 39 84 d5 e9 3b 1d df de 3b
       0.0032069325 0.00040730686 0.0071360487 0.0068014995
0001e0 46 f9 4b 3b fa da c6 3a f6 37 f2 3b 27 6b ef 3a
       0.003112392 0.0015171461 0.007391925 0.0018266187
0001f0 dd 17 4b 3b f4 9e 35 3c dc 20 52 3b 98 8a 88 3b
       0.0030989565 0.011085261 0.0032063043 0.0041669123

cls.3.weight f4 [256, 128]
000000 75 34 94 bd e1 92 05 bd c5 c5 ec 3c ab 74 b1 bc
       -0.07236568 -0.032610778 0.028902898 -0.021662077
000010 63 18 01 bd 12 0f 6c 3d 73 e6 0c bc b0 12 06 bb
       -0.031517398 0.05763156 -0.008599865 -0.0020457916
000020 b0 e9 5f 3b 5e 83 d3 bc c6 9a 2f bd 7a 7c 88 3a
       0.0034166388 -0.025819477 -0.042872213 0.0010413073
000030 2e 16 c3 bc e8 be 44 bc 84 a3 a3 bd cf ce b8 bc
       -0.023814287 -0.012008406 -0.079901725 -0.022559552
000040 72 ee 3b 3d ad d7 ad bd 7d 71 89 3c 99 ac 08 bc
       0.045881696 -0.084884025 0.016777748 -0.008341932
000050 97 48 a0 3c 0c 8e cd bc 99 51 88 3c ad ef a8 3d
       0.019565864 -0.025092147 0.016640471 0.082488395
000060 43 d8 c0 3c 63 d7 10 bc 8a 38 51 3d cc 75 63 bc
       0.023540622 -0.008840415 0.05107931 -0.013883065
000070 62 48 e1 bc e0 d3 17 be 4b 09 32 bb 08 c3 72 bd
       -0.027500335 -0.14826918 -0.0027166184 -0.059268028
000080 09 0e 9a bb 1f 69 b9 3d 71 85 f5 bc 73 b4 86 bc
       -0.00470138 0.090532534 -0.029970856 -0.016443467
000090 cc ef ce 3d 40 fb 80 3d b1 6a 82 3d be 2a aa bd
       0.101043314 0.06297922 0.06368006 -0.08308934
0000a0 c1 24 fb bc 88 8e a9 3d a5 33 cb bb 99 23 b1 bd
       -0.030657174 0.08279139 -0.006201225 -0.08649368
0000b0 03 8a 90 bd 9d 3e d0 3c 22 93 c3 bc 90 71 2d bd
       -0.07057574 0.025420481 -0.02387387 -0.04234463
0000c0 8b d6 83 bd e1 1e a6 bd b7 73 5a bd af 88 d8 3d
       -0.06437405 -0.081113584 -0.05333301 0.10572945
0000d0 d4 14 a7 bd 01 91 f8 3c fa 31 87 3c 30 85 fd bb
       -0.081582695 0.03034258 0.016503323 -0.0077368245
0000e0 49 3d c7 3d 89 83 3e bd cd d3 04 be 86 40 a0 bd
       0.09728486 -0.04651216 -0.1297142 -0.07824807
0000f0 1a 3a b4 3c f1 c6 70 bc 3d 88 60 bd 2b 36 40 bc
       0.022000361 -0.014695869 -0.054817427 -0.011731665
000100 b2 f9 ef 3d 8d d1 8a 3d 61 06 81 3c df e8 73 bd
       0.117175475 0.0677825 0.015750112 -0.059548255
000110 e6 f0 8b bc 6c 18 1b bd fc 87 24 bd 1f a0 95 3b
       -0.017082643 -0.037865087 -0.040168747 0.004566207
000120 1e 53 0f bb 38 0b c7 bd 04 26 ea bc cf 45 8e bd
       -0.002186961 -0.09718937 -0.02858258 -0.06946909
000130 49 0a b1 bd c7 3f ec bd 8e 8f aa 3d 04 d0 96 3d
       -0.0864454 -0.11535602 0.08328162 0.073638946
000140 8d 0d 57 3d d8 f9 72 bd 76 b8 fe bc 87 50 18 bd
       0.052503157 -0.0593203 -0.031093817 -0.03718617
000150 16 ef bd bd 8f 45 89 3c 97 08 62 bc 41 c4 8d 3c
       -0.09274118 0.016756801 -0.013795993 0.017305495
000160 4f db 1a bd 46 5a 9c bd 12 71 5f bd a3 39 24 bd
       -0.037806805 -0.07634406 -0.05455119 -0.04009403
000170 b2 fa 33 bd c6 0b 39 bd ec ca 72 bd 54 8c 1f 3d
       -0.043940254 -0.045177244 -0.059275553 0.038952187
000180 b6 45 45 3d 27 f0 88 bd da 74 47 bd c5 6d 02 3b
       0.048162185 -0.066864304 -0.048695423 0.0019901854
000190 be 13 33 3d 45 e7 f4 3c bd 40 e9 bc 67 8e 44 3d
       0.04372 0.029895434 -0.028473252 0.047987368
0001a0 2d 01 7a bb b2 30 47 3b 9b 1d c4 3d 51 76 9f bd
       -0.0038147673 0.0030394015 0.09575959 -0.07786239
0001b0 33 b0 3f 3d f7 b4 51 bc 58 f1 59 bd f5 25 0b bd
       0.046798896 -0.012799493 -0.05320868 -0.033971746
0001c0 17 21 7a bd ac 62 87 bc a7 a8 a8 3b a6 b4 f8 bd
       -0.061066713 -0.016526543 0.005147058 -0.12143831
0001d0 93 80 27 3d 8d 49 26 3d 2a 76 94 bd 13 3e 50 bd
       0.040894102 0.040597487 -0.072491005 -0.05084045
0001e0 0d d7 b3 3d 60 7d a2 3d d1 44 e8 bc 28 ca 7f bd
       0.08781252 0.0793407 -0.028353127 -0.06244865
0001f0 eb d4 40 bc cd 46 79 3b 69 3d aa 3d e5 52 55 3d
       -0.011769514 0.0038036585 0.08312494 0.052081008
000200 c9 b9 89 bd 74 88 94 3d ec c3 b0 bc bf 82 69 3c
       -0.06724889 0.07252589 -0.021577798 0.014252364
000210 af 02 fc bc 58 50 8e bd 11 eb 5a bc 0a 95 cf bd
       -0.030762998 -0.06948918 -0.013361708 -0.10135849
000220 3c 04 0e bc a7 0d ce 3c 4d 20 96 3d 06 46 74 3d
       -0.008668002 0.025152994 0.0733038 0.059637092
000230 f8 13 b9 bd 69 36 44 3d f1 58 21 3d f4 08 d4 3c
       -0.09037012 0.047903452 0.03939146 0.025883175
000240 3c b1 8e bd a7 6d 05 bd 8e 59 bc bd da fb 87 bd
       -0.069673985 -0.032575276 -0.09196769 -0.06639834
000250 c9 89 38 bd 27 ca b1 bc 51 76 a6 bc 2e 2c d9 3c
       -0.045053277 -0.021702839 -0.02032009 0.026510324
000260 e9 e0 4b bd 9d 41 9b 3d 20 e2 2d 3d b5 2d a9 bd
       -0.049775038 0.07580874 0.042451978 -0.08260671
000270 45 e7 12 bd 5b c6 9e 3d a7 9c 9a 3c fe 30 4a bd
       -0.035865087 0.07752677 0.018873526 -0.04936313
000280 c6 48 3d bd e5 e9 a5 3d e7 33 ad 3b ea 8f a7 bd
       -0.04621198 0.081012525 0.0052857283 -0.08181746
000290 9b f8 76 bd 1e f1 e8 bc e3 8f 35 3d b4 1d c2 3d
       -0.060295682 -0.028435286 0.044326674 0.09478322
0002a0 5d ab 4d 3d be b4 65 3c 33 80 24 bd 41 80 a6 bd
       0.050212253 0.014020143 -0.040161323 -0.08129931
0002b0 2a 36 30 bd 55 42 24 3c e1 34 ce bc 61 9c 96 3d
       -0.043020405 0.01002558 -0.025171699 0.07354046
0002c0 f3 c7 96 bc 77 3a 22 3d 87 b7 23 bd 49 48 a9 bd
       -0.01840589 0.039606538 -0.039969947 -0.082657404
0002d0 e5 7f 8b 3c cd 72 a6 3d 7a 19 d6 3d b0 1b 3b 3d
       0.017028758 0.08127365 0.10454078 0.0456807
0002e0 f7 9d cb bc 1b e8 66 bb a2 ee c7 3c d2 73 62 bd
       -0.024855597 -0.003523356 0.024405781 -0.055286236
0002f0 d1 a3 85 3d 36 d2 11 3d 97 79 3e 3d 06 d8 2f 3d
       0.06525386 0.035600863 0.046502676 0.042930625
000300 7c f8 00 be 40 6a 15 bd 0a 5d 11 3c 97 57 80 3d
       -0.1259479 -0.03647828 0.00887228 0.062667064
000310 3b 9b 20 bd c9 48 e1 3c a1 f9 2e bb 16 e9 a8 3b
       -0.03921054 0.027500527 -0.0026699083 0.005154739
000320 0c 98 a5 3d fb f5 81 3d 03 23 a2 3c 35 2c 17 bd
       0.08085641 0.06345745 0.019792086 -0.036907393
000330 fd de 23 bd ac d7 e1 3c 24 01 6d ba 93 98 da bd
       -0.04000758 0.02756866 -0.00090410025 -0.106736325
000340 f8 66 9a bd d3 d4 d1 3c b1 53 e1 3b da e4 08 3d
       -0.07539171 0.025614178 0.006876432 0.033421375
000350 76 fd 3a bd d8 cf 98 3c 3a 52 9f bc 5d 19 bb 3c
       -0.045651875 0.018653795 -0.019448388 0.022839243
000360 7e 73 04 be 8a 6b 82 bd a7 92 24 3d 73 ab 52 3d
       -0.12934682 -0.06368168 0.04017892 0.051433038
000370 1b 85 ba bd 85 b4 23 bd 6b e9 7c 3d 79 1f 63 bd
       -0.09107419 -0.03996708 0.061746042 -0.055449937
000380 5f 1c c1 bc ee 49 27 3d ea 01 1e 3c 40 f5 86 3d
       -0.023573099 0.04084199 0.009644011 0.065897465
000390 09 84 ee bc a7 c3 26 3d 0a d0 7c bd 48 ec 18 3c
       -0.029115694 0.040713932 -0.06172184 0.009333678
0003a0 be c8 81 3d 63 48 f8 3a 21 59 80 3c ff 87 85 bc
       0.06337117 0.0018942471 0.0156675 -0.0163002
0003b0 90 0b a5 3d 61 02 33 3d 1d 20 0e bd 58 3b d0 bd
       0.08058846 0.04370344 -0.034698594 -0.10167569
0003c0 2e b0 a1 3c ec 46 85 bd 64 0c 25 3d 72 81 99 3c
       0.01973733 -0.06507668 0.04029502 0.018738482
0003d0 75 b4 ec 3c ec 88 6c bd 58 c1 ad bd aa 3b e4 bb
       0.028894642 -0.057747766 -0.08484143 -0.0069651203
0003e0 32 26 5e 3d 99 16 53 3d 54 d0 9b bc 77 c1 4b bd
       0.054235645 0.051535223 -0.019020237 -0.04974505
0003f0 29 bd 70 bd dd 48 da bd 42 e6 ee 3c 5c c3 34 bd
       -0.058774147 -0.10658429 0.02916253 -0.04413162

cls.3.bias f4 [256]
000000 63 33 e5 bc a1 90 b4 bd 5a ce 0b bd b3 bc 4a 3d
       -0.027978605 -0.08816648 -0.03413234 0.049496364
000010 93 90 5b ba 77 ca 97 bd ae e4 5a 3d d9 35 e9 3d
       -0.000837573 -0.07411664 0.053440742 0.11387224
000020 58 23 92 3d 35 7e e2 bd 32 78 37 3c b4 c3 10 bd
       0.071356475 -0.11059228 0.01119809 -0.035342887
000030 fa 52 50 3d 6a 60 b0 bd d5 d2 3b 3d 2d 15 fc bc
       0.050860383 -0.086121395 0.045855362 -0.030771816
000040 d0 67 2a bd c5 d5 4a bd df 0e 17 bd 2e 6e da 3c
       -0.04160291 -0.049520273 -0.036879417 0.026663866
000050 48 27 08 3d 63 74 4e 3d 65 4e 45 3d 31 e2 9c bd
       0.033240587 0.050403964 0.048170466 -0.0766033
000060 ae 08 bf 3c e1 10 4a 3c b0 d2 9c bd a8 0e c2 bd
       0.023319568 0.012333126 -0.07657373 -0.09475452
000070 c5 21 82 3d 01 4c a2 bd 46 e3 9d 3d 33 e7 d3 3c
       0.06354097 -0.07924653 0.077093646 0.02586708
000080 a6 e2 9f bd 05 b5 73 3d 4c cf 44 3d 87 ad 95 bc
       -0.07806902 0.059498806 0.048049256 -0.01827122
000090 aa 02 f8 3c d8 fc 04 bc 1a 7a ae bd 48 d5 9d 3d
       0.030274708 -0.008116923 -0.08519383 0.07706696
0000a0 62 24 c5 3c 79 9c 86 bc a4 5c 00 be 65 ac 2e bd
       0.0240652 -0.016432034 -0.1253534 -0.042644877
0000b0 9c b9 18 bd 03 12 61 ba 75 dd bd 3d 5b d7 b7 bd
       -0.037286386 -0.0008585753 0.09270755 -0.08976623
0000c0 aa f3 b9 bd ce 88 10 bb f6 37 7c ba 09 2f ba bc
       -0.09079678 -0.0022054198 -0.0009621376 -0.022727506
0000d0 c4 00 1b bc d2 9d b3 bd cf 0a 86 3d 6f ed 60 bd
       -0.009460632 -0.08770336 0.0654503 -0.054913934
0000e0 36 99 2e bd c1 95 8f 3d ed 00 07 be a9 ef c5 bd
       -0.042626582 0.07010985 -0.13183947 -0.09664852
0000f0 bd f6 9a 3d be 91 71 bd 43 9c d1 bd a7 d0 c8 bc
       0.07566593 -0.05897688 -0.10234883 -0.024513556
000100 ef b4 a2 bc be 60 34 bd 83 4f 93 3d 40 99 06 3d
       -0.019861666 -0.044037573 0.071929 0.032860994
000110 c9 b0 8a bc ac bb e7 3d e3 46 02 be a3 3a 1b be
       -0.01693 0.113150924 -0.12722354 -0.15159087
000120 68 12 9c 3d 59 f8 d4 bd b1 47 aa 3c 18 0d f6 3c
       0.07620698 -0.10398931 0.020786138 0.03003554
000130 a2 cd a8 bd 87 c1 6c 3d 99 86 04 bd e1 a2 34 bd
       -0.08242346 0.05780175 -0.032354925 -0.044100646
000140 e1 dc c5 3c e3 f8 12 3d d5 96 2e 3d 83 06 ed bc
       0.024153175 0.035881888 0.042624313 -0.02893377
000150 1d 0a fb 3d d9 b7 20 3d e3 7b 96 bd 59 31 08 bd
       0.12257788 0.03923783 -0.07347848 -0.033250187
000160 eb 5e 06 3d 2a a2 84 bd a9 f3 3c 3d de ee a7 bd
       0.032805365 -0.06476243 0.04613081 -0.08199857
000170 ad ac 1e bc 03 dc dc bc ba 95 94 bd 15 f9 6e bd
       -0.009684724 -0.026960379 -0.072551206 -0.058343012
000180 b0 4f 13 be ee 62 c7 3c 6f 87 84 3c 3a 9f 05 3d
       -0.14385867 0.024339166 0.016177861 0.032622553
000190 09 93 4f 3d ca 11 94 bd b8 6b 1f 3d b8 d0 71 3d
       0.050677333 -0.072299555 0.038921088 0.05903694
0001a0 eb c9 8d bd d6 f7 bf bd 35 38 4b bc c7 e2 1f bb
       -0.069232784 -0.09373443 -0.0124035375 -0.0024396644
0001b0 e2 1d 74 bd 37 e0 c5 bd 96 a2 aa bd 31 6e 52 3d
       -0.05959881 -0.09661906 -0.08331792 0.051374618
0001c0 ba 1c ab bd 7a c3 96 bd 29 2a e0 3b 2c d8 3d 3d
       -0.083550885 -0.07361503 0.0068409634 0.046348736
0001d0 ea 5f bb bc b3 ae de bc 16 6d da 3c ba 0a 9b bc
       -0.022872884 -0.027182912 0.026663344 -0.018926013
0001e0 b2 64 9d bc ad 46 51 bd ae b1 9b bd 9a 5a 91 3d
       -0.019213054 -0.051092792 -0.07602249 0.07097359
0001f0 89 4d fc bc 56 ae 16 be f2 92 17 be 1c bf ce 3c
       -0.03079869 -0.14714941 -0.14802149 0.025237612
000200 80 21 fe bc 7e 63 18 bc 40 b4 06 bd a3 76 97 3d
       -0.031021833 -0.009301065 -0.032886744 0.07395675
000210 fa e5 8e bd 3f 92 2c bc b5 02 c1 bc b0 2d 00 3d
       -0.06977458 -0.010532915 -0.023560861 0.03129357
000220 79 fb df bd b7 23 55 bd 68 ce 3f 3d c2 3a f9 bc
       -0.109366365 -0.052036013 0.046827704 -0.030423526
000230 0b 5a f4 bd 66 f5 9f bd 13 93 c2 bd f8 c0 15 bd
       -0.11931237 -0.07810478 -0.095007084 -0.036560982
000240 a8 a3 9b bd 18 8d 7e 3c 83 92 08 3e 89 7d 63 3d
       -0.07599574 0.015536569 0.1333714 0.05553964
000250 a9 a3 a4 bd a5 ae 05 3e c8 19 e6 bd c1 b6 1e 3d
       -0.08039028 0.13054903 -0.11235386 0.038748506
000260 04 20 2a bd dc 34 de bd 4c 56 ff 3c 8a 32 90 bd
       -0.04153444 -0.10849926 0.03116908 -0.070408896
000270 2f d5 6d bd 3d 7d 4e bb 13 de c6 bc 27 95 c0 3c
       -0.058064636 -0.0031507753 -0.024275815 0.023508621
000280 ae 32 01 bd 19 30 15 bd 56 21 07 3d 9b 1c 66 bd
       -0.031542473 -0.036422823 0.032990776 -0.056179624
000290 8a 4d 11 3d ec 59 63 3d 37 5a 34 3d f2 6b ce 3a
       0.035474338 0.055505678 0.044031348 0.0015748723
0002a0 ab 3b 9d bd d3 e2 a1 bd 4e 3a d6 3d a6 22 17 3b
       -0.076773964 -0.079045914 0.104603395 0.0023061424
0002b0 a0 5e 94 3c a1 bc b4 bd 9d 17 a8 bd 97 8d 5f bd
       0.018111527 -0.088250406 -0.08207629 -0.05457839
0002c0 cc cc b0 bd 12 d2 37 3d 8c 9d 1c be be 5c b7 bc
       -0.08632812 0.044878073 -0.15294474 -0.02238309
0002d0 ec d2 7c bd 08 c7 09 3d 30 c2 1a 3c 27 79 0c be
       -0.06172459 0.033637077 0.009445712 -0.13718091
0002e0 a5 37 62 3c bf e2 51 3d 30 3b e8 bd 3d 4c 54 3d
       0.013807212 0.051241633 -0.11339414 0.05183052
0002f0 ae 5c d5 bd 72 b3 82 bd 06 b6 ac bd b2 ca 90 3d
       -0.10418068 -0.06381883 -0.08433156 0.07069911
000300 57 b8 ea 3c e8 d7 c8 bd a2 db a1 bd 5d 04 f6 bd
       0.028652353 -0.09806806 -0.0790322 -0.12012551
000310 b8 b7 20 be b8 2a 59 3d 86 fb a5 bc eb e3 89 3c
       -0.15695083 0.053019255 -0.020261537 0.016832313
000320 c9 16 2a bb a3 80 9f bc b6 dc 36 3d 0d 64 c4 3d
       -0.0025953522 -0.019470518 0.04464408 0.09589396
000330 39 ed c5 3c 5e ff 43 bd a6 dd 1e bd da 39 89 bd
       0.024160968 -0.04785096 -0.0387856 -0.067004874
000340 f0 d0 81 bd 8e bd f7 bd 5a b1 cb 3d 9b d6 ba bc
       -0.0633868 -0.120967016 0.099459365 -0.02280741
000350 03 a5 7e bd c4 23 dd bc 2d 65 89 bd 1b 80 0d bd
       -0.062169086 -0.026994593 -0.06708751 -0.034546
000360 04 c5 a5 3c f2 8e b5 bd 22 c2 bf bc 0e 5c 14 bb
       0.020235546 -0.08865155 -0.023408 -0.0022637877
000370 c0 e4 f2 3c 97 03 0c be 0b b1 aa 3d 84 db 2c 3c
       0.029650092 -0.13673244 0.083345495 0.0105503835
000380 71 f1 64 3d 99 3c a3 3c c0 a9 7a bd dd 4e 47 bd
       0.05589432 0.019926356 -0.061197042 -0.048659194
000390 96 8c 9e bc 7a 66 a5 ba b2 ad ab 3c 8f 86 66 bc
       -0.019354146 -0.0012619041 0.020956848 -0.014070167
0003a0 c7 8a 59 3d 52 ad 21 3d 0c 3f 82 bc 32 a0 68 3c
       0.053110864 0.03947193 -0.015899204 0.01419835
0003b0 7a 44 27 bd f9 cb 28 3d 13 5a 89 bd 37 e0 bd bc
       -0.04083679 0.04121015 -0.067066334 -0.023178203
0003c0 2e 46 ac bd 53 26 0b bc 60 8e 8f bd 4f 9a 22 bc
       -0.08411823 -0.008493024 -0.07009578 -0.009924485
0003d0 85 2a b3 bc 7d cc 0d 3d 23 2c 19 bd e5 4b 84 3c
       -0.02187086 0.034618843 -0.037395608 0.01614947
0003e0 d7 15 1f 3b 58 22 e2 bd 17 d5 cd bd bd 2e b4 3d
       0.0024274492 -0.11041707 -0.10050409 0.08797977
0003f0 71 ff 83 3d 6d 63 75 3d 8c 68 43 3d 24 7b ac bd
       0.06445206 0.059909273 0.047707126 -0.08421925

cls.5.weight f4 [256]
000000 e3 db 7e 3f 9d 84 6f 3f b2 a0 80 3f 68 3b 6c 3f
       0.9955427 0.93561727 1.004904 0.92278147
000010 aa b2 76 3f 34 a7 70 3f 55 d1 81 3f aa 02 80 3f
       0.9636637 0.9400513 1.0142008 1.0000813
000020 c6 10 73 3f c5 9e 7f 3f 2d 05 7e 3f b8 de 69 3f
       0.9494747 0.9985164 0.9922665 0.91355467
000030 2b 9b 71 3f cf f0 75 3f a3 8f 72 3f 18 60 67 3f
       0.9437739 0.9607057 0.9475042 0.90381
000040 6c b4 67 3f 36 25 6a 3f fb c5 76 3f c2 d6 73 3f
       0.90509677 0.9146303 0.96395844 0.9524957
000050 9a 23 66 3f 49 91 75 3f be 80 60 3f 1a e4 70 3f
       0.89898074 0.9592481 0.87696445 0.94098055
000060 5f 4e 70 3f 6d b8 67 3f 43 12 77 3f 2e 56 7e 3f
       0.93869585 0.90515786 0.9651224 0.9935025
000070 eb 12 7c 3f 35 92 73 3f 66 c9 72 3f 75 81 7c 3f
       0.98466367 0.9514497 0.9483856 0.98635036
000080 b9 ce 79 3f cb d1 6a 3f a8 31 67 3f 72 d6 69 3f
       0.9758106 0.9172637 0.90310144 0.9134284
000090 4a 84 75 3f 11 48 6c 3f 76 00 7e 3f a1 fa 75 3f
       0.9590498 0.92297465 0.99219453 0.96085554
0000a0 b7 bb 68 3f a0 c0 6c 3f ae 50 73 3f ab 5e 76 3f
       0.9091143 0.9248142 0.9504498 0.962382
0000b0 66 6d 75 3f f4 18 7a 3f 80 ef 81 3f f9 0b 6b 3f
       0.95870054 0.97694325 1.0151215 0.91815144
0000c0 68 a4 6e 3f 3e ea 66 3f b3 70 63 3f 1a 1d 72 3f
       0.93219614 0.90201175 0.8884384 0.94575655
0000d0 f2 14 74 3f c6 0f 76 3f f0 4c 6c 3f fb 53 80 3f
       0.9534446 0.9611782 0.923049 1.0025629
0000e0 be a0 73 3f 85 3d 6e 3f 90 69 81 3f ab eb 7c 3f
       0.9516715 0.9306262 1.011034 0.987971
0000f0 25 ad 6d 3f 37 c6 7d 3f a6 fc 62 3f 19 50 75 3f
       0.9284232 0.99130577 0.8866676 0.95825344
000100 59 2e 6f 3f 91 4e 78 3f fa 8e 76 3f f9 77 7c 3f
       0.93430096 0.9699488 0.96311915 0.98620564
000110 c4 21 66 3f 70 d5 75 3f 73 f1 70 3f 0c 76 77 3f
       0.8989527 0.96028805 0.9411842 0.966645
000120 aa 02 78 3f 83 d1 7a 3f 2f 93 73 3f 44 05 80 3f
       0.96879065 0.9797594 0.9514646 1.0001607
000130 ca 22 71 3f b2 3b 6b 3f 49 52 71 3f ab a7 7b 3f
       0.9419371 0.9188796 0.9426618 0.98302716
000140 90 d6 6e 3f 69 e4 63 3f 71 d3 6c 3f 98 9c 71 3f
       0.93296146 0.890204 0.92510134 0.9437957
000150 3b 44 80 3f 88 d1 7a 3f ca 55 7c 3f 2c d1 83 3f
       1.0020822 0.9797597 0.98568404 1.0298209
000160 db 94 81 3f 22 0b 68 3f b2 b6 74 3f 44 91 73 3f
       1.0123552 0.9064199 0.9559127 0.9514353
000170 8b c3 76 3f 21 f1 6b 3f 82 e3 6e 3f 04 f4 80 3f
       0.96392125 0.9216481 0.933159 1.0074468
000180 ed 4d 73 3f dc 72 6d 3f d4 ca 78 3f 6b 06 83 3f
       0.9504078 0.92753386 0.9718449 1.0236334
000190 b3 dd 69 3f c1 a6 70 3f 28 2a 77 3f d9 78 76 3f
       0.9135391 0.94004446 0.965487 0.9627815
0001a0 fe 79 6f 3f dc 8e 74 3f 3b dc 65 3f 11 e2 72 3f
       0.9354552 0.95530486 0.8978917 0.948762
0001b0 29 fc 68 3f c9 cd 73 3f 8f 98 68 3f 7d 72 80 3f
       0.91009766 0.9523588 0.90857786 1.0034939
0001c0 d6 54 86 3f f7 ef 6b 3f 1a 45 65 3f 58 98 62 3f
       1.049464 0.9216303 0.89558566 0.8851371
0001d0 7b f5 7b 3f 9b 49 6a 3f c1 ad 76 3f 64 71 71 3f
       0.9842145 0.91518563 0.9635888 0.94313645
0001e0 92 ac 77 3f 19 60 78 3f 19 7d 79 3f f7 7d 74 3f
       0.96747696 0.97021633 0.9745651 0.9550471
0001f0 2d ef 6d 3f 41 a7 64 3f 42 c8 6e 3f 68 12 6c 3f
       0.9294308 0.8931771 0.9327432 0.92215586
000200 58 8e 79 3f b7 26 76 3f 55 70 72 3f 8f 05 75 3f
       0.97482824 0.96152824 0.94702655 0.95711607
000210 e9 21 7f 3f 7b ac 68 3f bf 70 78 3f 51 64 71 3f
       0.9966112 0.90888184 0.97047037 0.94293696
000220 6b e8 6d 3f fd 2c 70 3f 0c 80 67 3f 12 4a 6f 3f
       0.92932767 0.93818647 0.9042976 0.934724
000230 e7 c9 74 3f 94 4d 6b 3f 11 d4 6b 3f 4b ee 7d 3f
       0.9562058 0.9191525 0.9212046 0.9919173
000240 d3 3d 7d 3f 2a dc 6f 3f 0b 43 7a 3f 11 35 6f 3f
       0.9892246 0.9369532 0.9775855 0.9344035
000250 bb 29 64 3f 84 8a 6d 3f 4b 47 7b 3f 35 74 77 3f
       0.89126176 0.92789483 0.9815566 0.9666169
000260 60 ff 71 3f 76 3a 7c 3f dc 7d 73 3f a4 3a 75 3f
       0.94530296 0.98526704 0.9511392 0.95792603
000270 b9 a3 7b 3f 40 c6 6f 3f 77 2d 7b 3f b9 16 6a 3f
       0.98296696 0.9366188 0.9811625 0.9144092
000280 2e 59 6f 3f 29 8f 6f 3f ab 35 78 3f f1 56 6d 3f
       0.9349545 0.9357782 0.9695689 0.9271079
000290 e5 cc 70 3f 8e ae 74 3f be c6 7c 3f c4 45 77 3f
       0.94062644 0.9557885 0.98740757 0.9659083
0002a0 55 18 7b 3f c6 6f 82 3f b1 7b 74 3f ac 25 70 3f
       0.98084 1.019036 0.9550124 0.9380748
0002b0 39 62 77 3f bf 6a 76 3f 6a 08 82 3f 44 d5 6b 3f
       0.9663425 0.9625663 1.0158818 0.9212229
0002c0 98 7b 6f 3f a4 eb 72 3f 47 14 6b 3f 06 0c 7a 3f
       0.93547964 0.9489081 0.91827816 0.97674596
0002d0 75 22 75 3f ba 57 6e 3f 73 f0 74 3f 1a b7 72 3f
       0.957557 0.9310261 0.95679396 0.9481064
0002e0 2b 65 70 3f 24 d9 79 3f a8 90 68 3f 27 81 78 3f
       0.9390437 0.97596955 0.9084573 0.9707207
0002f0 8a 99 6b 3f 0f 8e 70 3f 22 4e 67 3f ca ed 61 3f
       0.92031157 0.93966764 0.90353596 0.8825346
000300 72 21 6f 3f db ef 6d 3f ec 3d 78 3f 63 7a 71 3f
       0.9341041 0.92944115 0.96969485 0.9432737
000310 b5 2a 7a 3f c2 5b 6c 3f e8 48 69 3f dc 88 79 3f
       0.97721416 0.9232751 0.9112687 0.97474456
000320 fc cf 74 3f 28 ed 70 3f 82 ac 6b 3f 9f c2 7f 3f
       0.9562986 0.9411187 0.920601 0.99906343
000330 52 37 6f 3f d4 2e 7c 3f f8 d3 6e 3f 93 82 7e 3f
       0.9344379 0.98508954 0.9329219 0.9941799
000340 76 20 79 3f 73 52 82 3f 91 26 80 3f 6b f7 72 3f
       0.97315156 1.0181412 1.001177 0.9490878
000350 7f 85 70 3f f0 9a 7b 3f 5c 9d 7e 3f c4 6d 63 3f
       0.939537 0.9828329 0.9945886 0.88839364
000360 c6 1e 6e 3f 9f 19 6d 3f f8 23 71 3f 52 dc 7c 3f
       0.93015707 0.9261722 0.9419551 0.9877368
000370 a4 a8 6f 3f e2 da 78 3f 82 c9 72 3f ab cb 6a 3f
       0.936167 0.9720899 0.94838727 0.9171702
000380 b2 26 74 3f df 6a 76 3f 1f 85 82 3f 8f 88 7c 3f
       0.95371544 0.9625682 1.0196875 0.9864587
000390 2e 5a 6c 3f bd 8d 75 3f 6a a9 71 3f d0 6c 79 3f
       0.92325103 0.959194 0.9439913 0.9743166
0003a0 c5 26 73 3f d3 cd 71 3f 23 22 73 3f 9b 8c 77 3f
       0.9498103 0.9445469 0.94973963 0.9669892
0003b0 4e 5e 6e 3f 65 ef 6e 3f fe 18 80 3f 32 ee 77 3f
       0.9311265 0.9333404 1.0007627 0.9684783
0003c0 00 ed 70 3f 32 08 6a 3f ab d1 6d 3f 91 04 76 3f
       0.94111633 0.91418755 0.9289805 0.9610072
0003d0 cd 33 76 3f ed fa 73 3f a5 6e 72 3f 9b fa 70 3f
       0.9617279 0.9530476 0.9470008 0.94132394
0003e0 42 f3 6d 3f 0a b5 72 3f a5 f2 65 3f fa 0c 69 3f
       0.92949307 0.94807494 0.8982337 0.91035426
0003f0 e7 32 75 3f 02 cb 6b 3f 68 75 6a 3f cc b3 76 3f
       0.95780796 0.9210664 0.915854 0.963681
